logs/rsl_rl/digit_loco_manip/2025-08-28_16-58-35/exported/policy.onnx (onnx, 319821 bytes, 8 tensors)

actor.0.weight f4 [256, 104]
0	0x3ea0d735	0.3141419
1	0x3dc25721	0.09489275
2	0xbde92573	-0.11384096
3	0x3cc922e4	0.02455277
4	0xbd02f86c	-0.031975195
5	0x3d4b88e5	0.0496911
6	0xbcce17e4	-0.025157876
7	0x3e16110e	0.14654943
8	0x3adb7008	0.0016741762
9	0xbc59967c	-0.013280507
10	0x3e3a8d3a	0.18217936
11	0xbe2d7b5f	-0.16941594
12	0xbe067d7f	-0.1313381
13	0xbe14d06f	-0.14532636
14	0x3f09860f	0.5372018
15	0x3dd898f7	0.10576051
16	0xbdf7ad61	-0.12093616
17	0x3d3cc5e8	0.046087176
18	0xbc61be3c	-0.013778266
19	0xbe52004c	-0.20507926
20	0x3da62fcf	0.081145875
21	0xbd276ea3	-0.040876996
22	0xbd5fddd5	-0.054654915
23	0x3d30269b	0.043005567
24	0x3b44164d	0.002992052
25	0xbdfa330f	-0.1221677
26	0xbdd09d95	-0.101863064
27	0x3ccdbcc1	0.025114419
28	0xbe768bf2	-0.24076822
29	0x3e12e248	0.14344132
30	0xbeb6d483	-0.3570901
31	0xbe39e2f0	-0.18152976
32	0xbe432afb	-0.19059364
33	0xbd48035c	-0.04883133
34	0x3ec53f15	0.3852469
35	0xbd60f8c3	-0.054924738
36	0xbe8a3db7	-0.2700021
37	0x3e203993	0.15646963
38	0xbc59f9d3	-0.013304192
39	0xbce7fbf0	-0.028318375
40	0xbd4a2fc6	-0.049361967
41	0xbce511d9	-0.027962612
42	0x3cd3ae28	0.02583988
43	0xbd27d3f4	-0.04097362
44	0xbe2ea742	-0.17055991
45	0x3d833922	0.064073816
46	0x3cad80b1	0.021179529
47	0x3b0132a7	0.001971403
48	0x3dfb0e03	0.12258532
49	0x3d569dd9	0.05239663
50	0x3dabd736	0.083906576
51	0xbdf2e95c	-0.11860916
52	0xbd01289c	-0.03153287
53	0xbc0d5274	-0.008625615
54	0x3ce06271	0.02739069
55	0x3d1eb12a	0.038743176
56	0x3c736cc8	0.014857478
57	0x3d9948fd	0.074846245
58	0x3d10bc7a	0.035335995
59	0xbd1a2df3	-0.037641477
60	0xbc56e55a	-0.013116205
61	0x3c38165b	0.011235799
62	0xbb9decec	-0.004819503
63	0xbd1d90e4	-0.038468257
64	0x3cdf1e2c	0.027236067
65	0xbce9f408	-0.028558746
66	0xbc5bc038	-0.013412528
67	0x3d0deabd	0.034647692
68	0x3d19e2d2	0.03756983
69	0xbc44984a	-0.011999199
70	0xbd0f2868	-0.034950644
71	0xbc119316	-0.008885166
72	0x3ca9c627	0.02072437
73	0xbd5c2ffe	-0.053756706
74	0xb99d4e9d	-0.00030003945
75	0x3ced72e6	0.028985452
76	0xbcb9d7cc	-0.022685908
77	0xbc9fb73e	-0.019496556
78	0xbcb22899	-0.021747874
79	0x3dbb7212	0.091526166
80	0xbdb9f0f1	-0.09079159
81	0x3d9643e8	0.07337171
82	0xba36ba08	-0.000697047
83	0xbd2304f4	-0.039799646
84	0xbd8eede9	-0.069789715
85	0xbd6812fd	-0.056658734
86	0xbc57a596	-0.013162037
87	0x3d2edfb7	0.04269382
88	0xbd82d1fb	-0.06387707
89	0x3d6b1d5a	0.05740104
90	0xbcac00ab	-0.020996412
91	0x3be79f44	0.0070685465
92	0xbcaafb79	-0.020871865
93	0x3d56a323	0.052401673
94	0xbc1ebbe6	-0.009688353
95	0x3cdebffc	0.027191155
96	0x3d87d548	0.06632477
97	0x3dc8b508	0.09800154
98	0xbca145ef	-0.019686667
99	0x3dd5b17c	0.10434243
100	0xbce344a3	-0.02774269
101	0xbd2d3294	-0.042284563
102	0xbd2ed6e7	-0.042685416
103	0x3c81b930	0.015835375
104	0x3cce8a00	0.025212288
105	0x3d0c5fb4	0.034270957
106	0x3def0efc	0.1167278
107	0x3c06f039	0.0082359845
108	0xba3de866	-0.0007244408
109	0x3d8c7bb0	0.06859529
110	0xbd8b044c	-0.06787929
111	0x3e9412f0	0.28920698
112	0xbc38cec6	-0.011279767
113	0xbcfd9397	-0.030954165
114	0x3e3646b0	0.17800403
115	0x3dcd8066	0.10034256
116	0x3ede140c	0.4337467
117	0x3d8d2d84	0.06893447
118	0x3f1ba258	0.6079459
119	0x3ddd9f35	0.10821382
120	0xbdab767f	-0.08372211
121	0x3dbcefa6	0.09225397
122	0x3d3216a3	0.04347862
123	0xbde9f702	-0.11424066
124	0x3f08d5a3	0.53450984
125	0xbf043cef	-0.5165548
126	0x3d977062	0.07394482
127	0xbd0375f6	-0.03209492
128	0xbd53c58f	-0.05170208
129	0xbe168550	-0.14699292
130	0xbdced8a1	-0.100999124
131	0x3dfc263b	0.123119794
132	0xbe9b854f	-0.30375144
133	0x3e1f72ed	0.15571184
134	0xbca6e0f1	-0.020370932
135	0xbd3250c2	-0.043534048
136	0x3acab54f	0.0015465411
137	0x3e3df839	0.1855172
138	0x3d9af917	0.07567041
139	0x3da3a3a6	0.07990198
140	0x3d80eef0	0.06295574
141	0x3df6b3be	0.12046002
142	0x3ccc4b84	0.024938352
143	0x3d40b7f4	0.04705043
144	0x3c8d3ad6	0.01723997
145	0xbca45c86	-0.02006365
146	0x3c21eaa3	0.009882602
147	0x3dc4c95a	0.09608717
148	0x3be0f0ce	0.0068646437
149	0x3e13283f	0.14370821
150	0x3de50955	0.111834206
151	0x3c4babbb	0.01243108
152	0xbd2a5fd8	-0.04159531
153	0x3d545fec	0.05184929
154	0xbcf24e27	-0.029578282
155	0x3d51c69e	0.051214807
156	0xbbae78f5	-0.005324478
157	0xbd2e0431	-0.042484466
158	0xbc54d6b4	-0.012990642
159	0x3d2071f4	0.039171174
160	0xbce5be91	-0.02804497
161	0xbd5b4686	-0.053534053
162	0x3c44fa43	0.012022558
163	0x3bf93418	0.007605087
164	0xbd7a84a6	-0.06116166
165	0xbb75adbe	-0.0037487592
166	0xbc00b330	-0.007855222
167	0xbd12dabe	-0.03585314
168	0xbca3eb34	-0.020009615
169	0x3c98c76e	0.018649783
170	0xbd487547	-0.04893997
171	0x3ce1144e	0.027475502
172	0xbd30957b	-0.043111306
173	0x3cc7b6da	0.024379183
174	0xbcbdde83	-0.02317739
175	0xbd452fa3	-0.048141133
176	0x3d1a8f30	0.03773421
177	0xbcaaf904	-0.020870693
178	0xbc68537d	-0.014180061
179	0xbc8e0ece	-0.017341044
180	0x3c3bbfa1	0.011459262
181	0xbce62a5c	-0.02809637
182	0x3d88f5e6	0.066875264
183	0x3dad6f1f	0.0846846
184	0x3cde43b1	0.027131887
185	0xbd88f86b	-0.06688007
186	0x3d62f517	0.055409517
187	0xbb2da871	-0.0026498104
188	0x3cc4aa26	0.024006914
189	0x3df550a4	0.119782716
190	0x3d4c0fc8	0.049819738
191	0x3b4f79a9	0.0031658208
192	0xbd9e8466	-0.07740097
193	0x3c18857d	0.00930917
194	0x3d420a8c	0.04737334
195	0xbd3bd5d0	-0.045858204
196	0xbcac3f02	-0.021026138
197	0xbcf67e55	-0.030089537
198	0x3c731f0e	0.014838947
199	0xbd90ee10	-0.07076657
200	0xbcad94f7	-0.021189196
201	0x3de45f4e	0.111509904
202	0x3c793bf9	0.0152120525
203	0xbd9b2deb	-0.075771175
204	0x3b958ee2	0.004564152
205	0x3d5ef13a	0.05442927
206	0x3c37bce0	0.011214465
207	0xbb761be0	-0.0037553236
208	0x3dd5ce53	0.10439744
209	0x3d2592d3	0.040423226
210	0xbd5e74a5	-0.05431046
211	0x3c1017ca	0.008794734
212	0x3ba01018	0.004884731
213	0x3db5c3af	0.08875214
214	0xbd84910d	-0.06472979
215	0x3d6ec6bb	0.058294993
216	0x3e02169a	0.12703934
217	0x3cedf7aa	0.02904876
218	0x3c276546	0.010217017
219	0x3d2a5b65	0.041591067
220	0x3e5b8fbc	0.21441549
221	0x3e364d11	0.17802836
222	0xbd7434b5	-0.059620578
223	0x3d5dd65c	0.054159507
224	0x3e0f13f6	0.13972458
225	0xbcb6d38f	-0.022317676
226	0xbd332ae8	-0.04374209
227	0xbe0e8930	-0.1391952
228	0xbc5fb25f	-0.013653367
229	0xbeb466e0	-0.35234737
230	0x3ca82cba	0.02052914
231	0x3cd1774d	0.025569582
232	0xbd357177	-0.04429766
233	0xbd3d41fe	-0.046205513
234	0xbeaa113a	-0.33216268
235	0xbd919864	-0.07109144
236	0xbd946c9f	-0.0724728
237	0x3e877cde	0.26462454
238	0xbec54c33	-0.38534698
239	0x3e6a5a0a	0.2288591
240	0xbe88f099	-0.2674606
241	0xbe8b725b	-0.27235684
242	0xbe046414	-0.12928802
243	0x3ceedbd2	0.029157553
244	0x3e58b7f0	0.21163917
245	0xbd1a4865	-0.037666697
246	0x3e1e7ef2	0.15478113
247	0x3d55a50e	0.05215936
248	0x3e08074d	0.13284035
249	0x3ccf7eb9	0.02532898
250	0xbd643302	-0.055712707
251	0xbd616458	-0.055027336
252	0x3d2d8385	0.042361755
253	0xbdd0bb44	-0.10191968
254	0x3aaf445d	0.0013371814
255	0xbda0a6cf	-0.07844316

actor.0.bias f4 [256]
0	0x3e015768	0.12630999
1	0x3e0ac110	0.1355021
2	0xbd728fd9	-0.059219215
3	0xbd4a6814	-0.049415663
4	0x3d01a137	0.031647887
5	0x3d3368a1	0.043800954
6	0x3d538e1f	0.05164921
7	0xbde53dfb	-0.111934625
8	0xbe2e4b53	-0.17020921
9	0x3bd32726	0.006443876
10	0x3ca17aed	0.019711936
11	0xbdc82aa7	-0.0977376
12	0xbdd18e87	-0.10232263
13	0x3d822b30	0.063558936
14	0x3d07b564	0.033131972
15	0x3d80d6a6	0.06290941
16	0x3d51bc2c	0.051204845
17	0xbd262502	-0.040562637
18	0x3dc1b2ae	0.094579086
19	0xbd0bbdda	-0.034116603
20	0x3b941e72	0.004520231
21	0xbd980d11	-0.07424367
22	0xbc6e2ebc	-0.0145375095
23	0xbc83c21b	-0.016083768
24	0xbd39b408	-0.045337707
25	0xbd26869b	-0.040655714
26	0xbd6e47f8	-0.058174103
27	0x3dd996a4	0.106244355
28	0x3d0c7ad5	0.03429683
29	0x3d35553f	0.04427075
30	0xbd8885c4	-0.06666139
31	0x3d588367	0.05285969
32	0xbcb3a3fe	-0.021928784
33	0x3d4a7174	0.049424604
34	0x3db83605	0.089946784
35	0x3c24deef	0.010062917
36	0xbe2363ad	-0.15955992
37	0xbd9bd511	-0.076089986
38	0x3e189b19	0.14902915
39	0xbd3544b6	-0.04425498
40	0xbcc7b375	-0.024377564
41	0x3d7d6d75	0.061871964
42	0x3dc0614a	0.093935564
43	0xbab02010	-0.001343729
44	0xbb4faa8e	-0.0031687352
45	0xbd2b04bc	-0.041752562
46	0xbdd4e3e7	-0.103950314
47	0x3c2946cd	0.010331822
48	0xbdf2f44b	-0.118630014
49	0xbb9dc267	-0.0048144343
50	0xbdba589d	-0.09098933
51	0x3d89b834	0.06724587
52	0xbde64c0a	-0.11244972
53	0x3d3691dc	0.044572696
54	0x3dabc1f5	0.08386604
55	0xbad2f322	-0.0016094188
56	0xbd6e408d	-0.05816703
57	0xbdbc3e62	-0.09191586
58	0x3d543395	0.051807005
59	0xbb961259	-0.004579824
60	0xbcab7a34	-0.020932294
61	0xbd4d584d	-0.05013304
62	0xbcd33575	-0.025782326
63	0x3d002b95	0.031291563
64	0xbd825950	-0.06364691
65	0x3c8384f7	0.016054614
66	0x3b9aa13c	0.0047189277
67	0xbc91dd8d	-0.017805839
68	0x3cf137cb	0.02944555
69	0xbd86ec4f	-0.06588041
70	0xbe236b0f	-0.15958808
71	0x3da2ee88	0.079556525
72	0xbde6a196	-0.11261289
73	0xbd0915ae	-0.03346794
74	0xbe09dc39	-0.13462915
75	0x3d6e7e1e	0.058225743
76	0x3d1bf6f1	0.0380773
77	0xbd43107e	-0.04762315
78	0x3dcfb5ea	0.10142119
79	0xbc48e574	-0.012261737
80	0x3cb2ed62	0.021841709
81	0xbc3248a1	-0.010881574
82	0xbe146752	-0.14492539
83	0xbdf4c54a	-0.119516924
84	0x3c0520e5	0.008125518
85	0xbcc3f009	-0.023918169
86	0xbdd4679e	-0.10371326
87	0x3bb4d355	0.005518357
88	0x3d4c3865	0.04985847
89	0x3de44ccb	0.111474596
90	0xbbc649aa	-0.006051262
91	0xbc6251ee	-0.013813479
92	0x3dbcdcd6	0.092218086
93	0xbb3bd405	-0.002866031
94	0x3c312ddd	0.010814157
95	0x3d46f795	0.048575956
96	0xbd748f57	-0.059707012
97	0x3d49b2da	0.04924283
98	0x3d5d00c6	0.053955816
99	0xbd1de8a5	-0.038551945
100	0xbd6823d0	-0.05667478
101	0xbd57a42b	-0.052646797
102	0xbdb5c08c	-0.08874616
103	0x3d9f7c97	0.077874355
104	0xbd837493	-0.06418719
105	0xbc336301	-0.010948897
106	0x3ca04236	0.019562822
107	0x3d5b2344	0.05350043
108	0x39ede7a2	0.00045376742
109	0xbcfa1945	-0.030529628
110	0x3d06db0f	0.032923754
111	0xbd9ca1c5	-0.076480426
112	0x3d82c660	0.06385493
113	0x3d3e0f1b	0.046401124
114	0x3c28285a	0.010263527
115	0xbe16fd33	-0.14745025
116	0xbd0bc031	-0.034118835
117	0xbd7a4a8a	-0.061106242
118	0xbd0fc355	-0.035098393
119	0x3d6cdb28	0.05782619
120	0xbdaed1d5	-0.08536116
121	0xbc904789	-0.017612236
122	0x3d52223a	0.051302172
123	0x3de8f565	0.1137493
124	0xbd5c64ca	-0.053807057
125	0xbce914d5	-0.028452316
126	0x3ca09e69	0.019606786
127	0x3d1a54f9	0.037678692
128	0x3df6428e	0.12024413
129	0x3a98a1f0	0.0011644941
130	0xbd0ca834	-0.0343401
131	0xbb9e1fca	-0.004825567
132	0xbdabf6a5	-0.08396653
133	0xbe02382f	-0.12716745
134	0xbc3df313	-0.011593598
135	0xbd449987	-0.047997978
136	0xbd2219af	-0.039575275
137	0x3c2eb8db	0.01066419
138	0xbd7589f9	-0.059946034
139	0xbdd26221	-0.10272623
140	0xbdae9079	-0.0852365
141	0xbcad4c5c	-0.021154575
142	0x3d0ca1ff	0.03433418
143	0x3d1ab28b	0.037767928
144	0xbd5304ef	-0.051518377
145	0xbd984dd6	-0.07436721
146	0x3db5a053	0.0886847
147	0xbd5aca84	-0.05341579
148	0xbd818fb9	-0.06326241
149	0xbc8d06c7	-0.017215146
150	0x3d5771f5	0.052598912
151	0xbd1b214c	-0.03787355
152	0xbdd275a8	-0.102763474
153	0x3c80db42	0.01572955
154	0xbda5ce18	-0.0809595
155	0x3d29d339	0.041461203
156	0xbc134acc	-0.008990001
157	0x3df38957	0.1189143
158	0xbe03aa9e	-0.12858054
159	0xbd89dbdd	-0.06731389
160	0xbc909c5c	-0.017652683
161	0xbbe9b3b1	-0.0071320166
162	0xbdadf969	-0.08494837
163	0xbdbf3c1a	-0.09337635
164	0xbddd767d	-0.108136155
165	0xba8ce4c7	-0.0010749333
166	0x3c72c125	0.014816557
167	0xbd69f592	-0.05711896
168	0xbdb42351	-0.087957986
169	0xbd844227	-0.0645793
170	0x3cb4205a	0.021988083
171	0xbd8ac459	-0.067757316
172	0x3d14adc8	0.036298543
173	0x3cf64688	0.030062929
174	0xbd5deeb7	-0.054182734
175	0x3d8bba7d	0.06822679
176	0x3d9b5a58	0.07585591
177	0xbe2770f9	-0.1635169
178	0xbdf1c636	-0.11805384
179	0x3d796136	0.060883723
180	0xbd6468b9	-0.055763934
181	0x3c70b77d	0.0146921845
182	0xbca50713	-0.020144975
183	0xbc62c71c	-0.013841417
184	0xbc1165f0	-0.008874401
185	0x3da6c16f	0.08142363
186	0xbd5a4482	-0.05328799
187	0x3dd36da2	0.10323645
188	0xbd294e9a	-0.041334726
189	0xbd9b6ba3	-0.075888894
190	0xbdba00d3	-0.090821885
191	0x3d07b567	0.033131983
192	0xbdc0fcf5	-0.09423248
193	0x3d92cb75	0.071677126
194	0xbdfcdfa2	-0.12347342
195	0xbdc715a6	-0.09720926
196	0xbdbe729a	-0.09299202
197	0x3d225021	0.039627198
198	0xbdcd58cc	-0.10026702
199	0xbcc00dec	-0.023444138
200	0xbd5112b1	-0.051043216
201	0x3c620246	0.013794487
202	0x3e02cb75	0.12772925
203	0xbd7ba761	-0.06143892
204	0x3b9295e2	0.004473434
205	0x3d985554	0.0743815
206	0xbdf44e9c	-0.11929056
207	0xbdd0870e	-0.1018201
208	0x3db106b4	0.08643857
209	0xbb8889b7	-0.0041668075
210	0x3db7cc90	0.08974564
211	0x3da4af36	0.08041231
212	0xbc9e8460	-0.01935023
213	0x3c7c8c4e	0.015414311
214	0xbd713efc	-0.058897957
215	0xbd3f6b01	-0.046732906
216	0xbdde2be2	-0.10848214
217	0xbdd38b22	-0.10329272
218	0xbdad646a	-0.08466418
219	0xbd5f1c8f	-0.054470595
220	0xbca531ca	-0.020165343
221	0xbd7228b5	-0.059120853
222	0xbd432c4c	-0.047649667
223	0xbdbe16d4	-0.09281698
224	0xbd5cdffc	-0.053924546
225	0xbd4634c4	-0.048390165
226	0x3cc15a44	0.023602612
227	0xbd876aed	-0.06612191
228	0x3d164701	0.03668881
229	0x3d466856	0.048439346
230	0xbdf9d408	-0.12198645
231	0xbcf5f0ac	-0.030021988
232	0xbd025392	-0.03181798
233	0xbc28f787	-0.010312921
234	0xbd50fa95	-0.051020224
235	0x3b8e1140	0.0043355525
236	0x3da8b124	0.08236912
237	0xbd9e1b07	-0.07719999
238	0x3cddea2b	0.027089199
239	0xbde8d949	-0.11369569
240	0xbd3e851f	-0.046513673
241	0xbd1685bb	-0.03674863
242	0x3c8da11e	0.01728874
243	0xbd287c7d	-0.041134346
244	0x3dcf01b1	0.101077445
245	0x3da0507c	0.07827851
246	0x3d6345f0	0.05548662
247	0x3dfcd7e8	0.12345868
248	0x3c70b543	0.014691654
249	0xbd94c270	-0.072636485
250	0xbda24cb5	-0.07924787
251	0x3e018a3a	0.12650385
252	0x3e1202d9	0.14258899
253	0xbdaec0b0	-0.08532846
254	0xbd7b3f93	-0.061339926
255	0x3d0883af	0.03332871

actor.2.weight f4 [128, 256]
0	0xbcf25c82	-0.029585127
1	0x3cae96ce	0.021312144
2	0x3d5271bf	0.051378008
3	0xbcc2dcef	-0.02378699
4	0x3ceccebf	0.028907178
5	0xbc807d4e	-0.01568475
6	0x3d20d812	0.03926856
7	0xbcedd43d	-0.029031867
8	0xbc40eada	-0.011774743
9	0x3c78417a	0.01515233
10	0xbd80ec09	-0.0629502
11	0x3da16942	0.078814045
12	0x3c4015b5	0.011723925
13	0x3cdb0bce	0.026739027
14	0xbc58a891	-0.013223783
15	0x3d89b244	0.067234546
16	0xbd2f0df9	-0.042737935
17	0x3ad1f94e	0.0016019733
18	0x3d5caac6	0.0538738
19	0xbbe42473	-0.006962353
20	0x3d1a53c0	0.037677526
21	0x3d7e530c	0.06209092
22	0xbd82e2f7	-0.06390946
23	0xbd383af9	-0.044978116
24	0x3d2f3c85	0.042782325
25	0x3db0e615	0.08637635
26	0x3d0bd8e0	0.034142375
27	0xbbd01c49	-0.006351028
28	0xbaa92ba9	-0.0012906688
29	0xbd246807	-0.04013827
30	0x3d9a3f01	0.07531548
31	0x3cc158fe	0.023602005
32	0x3d655395	0.055987913
33	0xbd49e87a	-0.049293973
34	0x3d8ae2a7	0.06781512
35	0xbd611d41	-0.05495954
36	0x3d736806	0.059425376
37	0xbd7580c8	-0.05993727
38	0x3d7d4df2	0.061841913
39	0xbbab180f	-0.005221374
40	0xbd37a5a4	-0.0448357
41	0x3d9e3635	0.07725183
42	0x3a3c9cf3	0.0007195018
43	0xbbddd367	-0.006769586
44	0x3cc3e443	0.023912555
45	0xbcea0c7c	-0.028570406
46	0xbda2b48f	-0.07944595
47	0xbd7a07d5	-0.061042625
48	0x3c876cd7	0.016531391
49	0xbd79130e	-0.060809188
50	0x3d89b660	0.067242384
51	0x3d56f4cf	0.05247956
52	0xbc131dee	-0.008979304
53	0xbda4205d	-0.08013985
54	0x3d42768a	0.04747633
55	0xbd46d028	-0.048538357
56	0xbd3927b1	-0.04520387
57	0x3d4e3d0a	0.05035118
58	0x3c046562	0.008080812
59	0xbc535d65	-0.012900685
60	0x3d20aa6e	0.039225034
61	0xbcdb0e4d	-0.026740218
62	0xbbf536f3	-0.007483357
63	0xbc8a4235	-0.016877273
64	0xbd167752	-0.036734886
65	0x3d0ee4f9	0.034886334
66	0x3b0d083a	0.0021519796
67	0x3d66a4ff	0.056309696
68	0xbd0f9066	-0.03504982
69	0x3dbb1f6f	0.09136855
70	0xbcd6255c	-0.026140861
71	0x3cb3b20e	0.021935489
72	0x3df4e159	0.11957044
73	0x3d0dceec	0.034621164
74	0x3db465c7	0.08808475
75	0x3d3e9ad9	0.046534393
76	0xbbc1175c	-0.005892677
77	0xbdbce5bc	-0.09223506
78	0xbdc185c3	-0.09449341
79	0xba3ee17f	-0.00072815263
80	0xbd21e278	-0.039522618
81	0x3d67ff3e	0.056639902
82	0x3d7b39e6	0.061334513
83	0xbcc18411	-0.023622544
84	0xbc13140c	-0.0089769475
85	0xbc2b2f8b	-0.010448347
86	0x3e46bf23	0.1940885
87	0xbd3bad41	-0.045819525
88	0xbd3de63c	-0.046362147
89	0x3d40bd23	0.047055375
90	0x3c0dc990	0.008654013
91	0xbd89f7d0	-0.067367196
92	0x3d7c8416	0.061649404
93	0x3c9bc1df	0.019013343
94	0x3c1f8307	0.009735829
95	0xbddff3a9	-0.10935146
96	0x3cb385c5	0.021914372
97	0xbdf38da2	-0.11892249
98	0x3ca21fec	0.019790612
99	0xbd301464	-0.042988196
100	0xbc8fdbec	-0.017560922
101	0xbc9207f7	-0.017826064
102	0xbcb3c29e	-0.021943387
103	0xbce771fa	-0.02825259
104	0x3cb8c22f	0.022553531
105	0xbd1b868f	-0.037970122
106	0x3d75f933	0.060052108
107	0x3d90bcc1	0.07067252
108	0xbc035881	-0.008016706
109	0xbd29b191	-0.041429106
110	0xbcc081aa	-0.023499329
111	0x3d8d00b6	0.06884901
112	0x3dc8380c	0.09776315
113	0x3d804caf	0.06264626
114	0x3d100e1f	0.035169717
115	0x3c9ed5f3	0.019389128
116	0x3d840974	0.064471155
117	0xbcf3addb	-0.029745987
118	0x3cf1dfb6	0.029525619
119	0x3d1c74b4	0.038197234
120	0xbccc7db1	-0.024962278
121	0x3d9beeee	0.076139316
122	0xbd218555	-0.039433796
123	0xbc25a1af	-0.010109349
124	0xbd2b8a1b	-0.041879755
125	0x3d85db98	0.06536025
126	0xbcb10325	-0.021607945
127	0xbcd7f85b	-0.026363542
128	0x3d117e56	0.035520874
129	0xbd671a1a	-0.056421377
130	0xbd2e45b0	-0.042546928
131	0x3d8ddce2	0.06926896
132	0xbce18009	-0.027526872
133	0x3db71ecd	0.08941422
134	0xbcc25d5a	-0.023726154
135	0xbdc95ca2	-0.098321214
136	0x3d6a0062	0.05712927
137	0x3d1e0591	0.038579527
138	0x3d8bda2f	0.068287246
139	0x3da3b091	0.07992662
140	0xbddea65f	-0.108715765
141	0xbd6c18d2	-0.057640858
142	0xbcd5bab7	-0.02609001
143	0xbdeb5d2d	-0.11492381
144	0xbd2bc128	-0.041932255
145	0x3d0621cc	0.032747075
146	0x3d2eb5e3	0.04265393
147	0xbd58943d	-0.052875746
148	0xbc383e5e	-0.011245338
149	0xbd521cf0	-0.05129713
150	0xbda12a3b	-0.07869383
151	0x3d12d16d	0.035844255
152	0xbda0bd5f	-0.0784862
153	0x3c86e492	0.016466413
154	0x3c4c87a8	0.012483515
155	0xbbe59596	-0.0070063574
156	0x3cd3a2b1	0.025834413
157	0x3d504084	0.050842777
158	0xbc6dcc01	-0.01451397
159	0xbd43f22c	-0.047838375
160	0xbd401800	-0.04689789
161	0xbdbca52c	-0.092111915
162	0x3d2fbc8a	0.042904414
163	0x3d9a120b	0.07522973
164	0x3d1892b2	0.037249275
165	0x3bd122ac	0.006382307
166	0xbd14bbb6	-0.036311828
167	0x3d8c8bbe	0.06862591
168	0x3c8d0b5b	0.017217329
169	0xbc8fb854	-0.01754395
170	0x3cdcd48a	0.026956815
171	0xbb25288a	-0.0025201165
172	0xbdcbe38c	-0.099555105
173	0xbdc0ff03	-0.094236396
174	0xbc73d998	-0.014883421
175	0x3d330918	0.043709844
176	0xbd0ad3c6	-0.03389337
177	0xbd1cf3ad	-0.038318325
178	0x3c112544	0.0088589825
179	0x3d92291f	0.071367495
180	0x3d15a47b	0.036533814
181	0xbcd6a04d	-0.026199484
182	0xbcd2f9b5	-0.025753835
183	0xbb48cfec	-0.003064151
184	0x3d53f996	0.051751696
185	0xbd2b04d4	-0.04175265
186	0xbc6c42b6	-0.014420202
187	0xbcb522f1	-0.022111388
188	0xbd5b4970	-0.053536832
189	0xbcf1750f	-0.029474763
190	0xbd46f9d5	-0.048578102
191	0x3ddbf1ba	0.10739465
192	0xbd4e020c	-0.05029492
193	0xbdadcc02	-0.08486177
194	0xbd82f17f	-0.06393718
195	0xbd0f7411	-0.0350228
196	0x3d9026c0	0.07038641
197	0x3b471c84	0.0030381987
198	0xbd3a536d	-0.045489717
199	0xbb28709c	-0.0025701886
200	0x3d8b8d6a	0.06814082
201	0xbd43d18c	-0.04780726
202	0x3bfb7167	0.0076734307
203	0x3bf06174	0.007335836
204	0x3d967918	0.073473155
205	0xbd0deed7	-0.034651604
206	0x3be106f4	0.006867284
207	0x3d8c3a33	0.06847038
208	0xbd2b2f1d	-0.041792978
209	0xbcd5e98c	-0.02611234
210	0x3d8aa29a	0.06769295
211	0xbd1a1999	-0.037622068
212	0xbd30a9c1	-0.04313064
213	0x3d2de02c	0.042450115
214	0xbb9d2215	-0.0047953227
215	0xbccfe3f0	-0.025377244
216	0x3d61ea5c	0.055155143
217	0x3cf7ed79	0.030264603
218	0x3cacae27	0.021079136
219	0x3d0c0390	0.034183085
220	0x3cb92bfc	0.022603981
221	0xbcdbcb19	-0.026830243
222	0xbd86853a	-0.0656838
223	0xbd1edf09	-0.03878692
224	0xbd832950	-0.06404364
225	0x3c4dfd57	0.012572608
226	0x3da8e28d	0.08246336
227	0x3db109c1	0.086444385
228	0x3ca1d4f2	0.01975486
229	0xbcbdbf2b	-0.023162445
230	0xbc57c040	-0.013168395
231	0x3d1573fa	0.036487557
232	0x3d93de68	0.07220155
233	0xbd66b26b	-0.056322496
234	0x3d22c207	0.03973582
235	0x3cd931b9	0.026512967
236	0xbd2585d4	-0.04041083
237	0xbdab94de	-0.083780035
238	0x3d5553a4	0.05208172
239	0x3b1bab53	0.002375324
240	0xbc76e434	-0.015069056
241	0x3d70b563	0.058766734
242	0xbd8f5a04	-0.06999591
243	0x3d33e85e	0.043922774
244	0x3cdf3a6f	0.027249543
245	0xbcbb77b9	-0.022884237
246	0x3e03dfeb	0.12878387
247	0xbd2b4042	-0.041809328
248	0x3d5dcebf	0.054152247
249	0xbd2a660a	-0.04160122
250	0xbd0d36bb	-0.034476023
251	0xbc8a9197	-0.016915126
252	0x3ca4e218	0.020127341
253	0xbd8190c5	-0.06326441
254	0xbd799dae	-0.06094139
255	0xbc988930	-0.018620104

actor.2.bias f4 [128]
0	0xbd2b288e	-0.041786723
1	0x3cb62605	0.022234926
2	0x3d6aad5d	0.05729424
3	0xbdd7d87e	-0.105393395
4	0x3d28c0df	0.04119956
5	0xbdde1663	-0.10844114
6	0xbc57b072	-0.013164626
7	0xbc8c33a3	-0.017114466
8	0x3d70af21	0.058760766
9	0xbbe9aeff	-0.007131457
10	0x3d570520	0.052495122
11	0x3c8daade	0.01729339
12	0xbda45b7c	-0.08025262
13	0xbc199459	-0.009373748
14	0x3babbad4	0.0052407775
15	0xbd180b40	-0.037120104
16	0x3d91e4db	0.07123729
17	0xbd151ab5	-0.036402423
18	0xbd75c6a4	-0.06000389
19	0x3d3b2563	0.04568995
20	0xbd95a9f6	-0.07307808
21	0xbdbf592e	-0.093431816
22	0xbd323d93	-0.043515753
23	0x3cd064da	0.025438715
24	0x3cbcba01	0.023037912
25	0x3c2e1e85	0.010627394
26	0x3c7e2878	0.015512578
27	0xbd7b07ef	-0.061286863
28	0xbd4802b0	-0.048830688
29	0xbd6f9945	-0.05849578
30	0xbaa110cf	-0.0012288335
31	0xbc115674	-0.00887071
32	0xbb4a8883	-0.0030904121
33	0x3ce36e90	0.027762681
34	0xbd6d0c7a	-0.057873227
35	0xbd0a51f1	-0.03376955
36	0xbd76a64c	-0.060217187
37	0x3c8ec858	0.017429516
38	0xbd7d1fad	-0.061797787
39	0xbc831ce7	-0.016004993
40	0x3dc6e1d2	0.097110406
41	0x3d62c2d9	0.055361602
42	0xbb743f6a	-0.0037269243
43	0xbd5d953e	-0.054097407
44	0xbb55cc5e	-0.0032623033
45	0xbd933471	-0.07187737
46	0xbdab8853	-0.08375611
47	0x3cb41b64	0.021985717
48	0xbd1dd052	-0.038528748
49	0x3b63b88f	0.0034747457
50	0xbd216199	-0.039399717
51	0xbd430760	-0.047614455
52	0xbc494177	-0.012283674
53	0x3c824601	0.015902521
54	0x3c9ccc7c	0.019140474
55	0xbcceaf41	-0.025230052
56	0xbd6f6cf7	-0.058453526
57	0xbcbb3dfe	-0.022856709
58	0xbdee8199	-0.116458125
59	0xbd8b3f2d	-0.06799159
60	0x3b20e683	0.0024551458
61	0x3b82a19f	0.003986552
62	0xbd7a43e6	-0.06109991
63	0x3c945ffb	0.018112173
64	0xbdfb9148	-0.122835696
65	0x3d56d7de	0.05245196
66	0x3cd77854	0.026302494
67	0xbd201fd5	-0.039092857
68	0x3dd25407	0.10269933
69	0x3d9b7e67	0.07592469
70	0xbbcf6254	-0.0063288603
71	0x3d127780	0.035758495
72	0xbde4a905	-0.111650504
73	0x3d270fd0	0.040786564
74	0xbd49aac8	-0.049235135
75	0x3dc12840	0.09431505
76	0xbdaf2c55	-0.085533775
77	0xb9a56526	-0.00031546614
78	0x3929d957	0.00016198061
79	0xbdaa028d	-0.08301268
80	0xbcde1b7f	-0.02711272
81	0x3d9c3802	0.0762787
82	0xbd194993	-0.03742368
83	0xbca9893e	-0.020695325
84	0xbdd4afbd	-0.10385082
85	0x3c7c2541	0.015389741
86	0xbbb7b0a9	-0.0056057763
87	0x3d4d38c7	0.050102975
88	0x3cae2d2b	0.021261772
89	0xbd52fa92	-0.051508494
90	0xbcaf73a7	-0.021417452
91	0xbd574125	-0.05255236
92	0x3ce53274	0.02797816
93	0xbd17221e	-0.03689777
94	0xbdc10b90	-0.094260335
95	0x3d048ade	0.032358997
96	0x3dea2fac	0.11434874
97	0xbbd9d537	-0.0066477316
98	0xbcd4aa8d	-0.025960231
99	0xbc7902a9	-0.015198388
100	0xbd966927	-0.07344275
101	0x3d9a364a	0.07529886
102	0xbd4e4ab4	-0.05036421
103	0xbcbc6733	-0.022998428
104	0x3de039d8	0.10948533
105	0xbbe52c43	-0.006993802
106	0xbc022457	-0.007943234
107	0x3d021227	0.031755593
108	0x3c64b7b1	0.013959811
109	0x3cf19d23	0.029493874
110	0xbdb3eecb	-0.087857805
111	0xbcd35c6f	-0.025800912
112	0x3cb17887	0.021663917
113	0xbbcedf46	-0.0063132374
114	0x3d19531b	0.03743277
115	0xbd8aa23f	-0.06769227
116	0xbd7c458f	-0.061589774
117	0xbd411a33	-0.047144126
118	0x3c1793d5	0.0092515545
119	0xbd5330b3	-0.051560115
120	0x3d12c59c	0.035832986
121	0xbd9ecfae	-0.077544555
122	0x3c3ff0a8	0.011715092
123	0x3d2910ff	0.041275974
124	0x3b2d4302	0.0026437645
125	0xbd85c7fc	-0.065322846
126	0xbd1159eb	-0.035486143
127	0xbdd5dbed	-0.10442338

actor.4.weight f4 [128, 128]
0	0x3d92f7e1	0.071761854
1	0xbe1ffb76	-0.15623268
2	0x3d7ab337	0.06120607
3	0xbd7da510	-0.061924994
4	0x3e063c1f	0.13108872
5	0x3de3b59c	0.111186236
6	0xbcea427f	-0.028596161
7	0x3e1c05b2	0.15236548
8	0x3dec77a3	0.115462564
9	0x3dd5eccc	0.10445556
10	0x3cb50f01	0.022101881
11	0x3d0c264e	0.034216218
12	0x3d989093	0.0744945
13	0x3d486b82	0.048930652
14	0xbdca7671	-0.09885872
15	0xbc79e56b	-0.015252451
16	0x3dd8f4aa	0.10593541
17	0xbceab4a6	-0.028650593
18	0x3d18113c	0.03712581
19	0x3cc6588a	0.02421214
20	0xbbd54f4e	-0.006509698
21	0x3d13b26a	0.03605882
22	0xbd33be76	-0.04388281
23	0xbce87675	-0.028376797
24	0x3d6acdd6	0.057325207
25	0xbd04e60f	-0.032445963
26	0x3d2e7cf8	0.04259965
27	0xbd35a606	-0.044347785
28	0x3e17a9d4	0.14810878
29	0xbd4c8674	-0.049932912
30	0x3d21a480	0.03946352
31	0xbca54aa8	-0.0201772
32	0x3e2244ab	0.15846507
33	0xbc7a50a1	-0.0152780125
34	0x3cf92ab6	0.030415874
35	0xbcfde221	-0.030991616
36	0x3da6a7d1	0.08137477
37	0xbd585ce0	-0.052822948
38	0xbe2fd13a	-0.17169657
39	0xbd614f72	-0.055007406
40	0x3cefecb8	0.029287681
41	0xbd819155	-0.06326548
42	0xbc86466f	-0.016391007
43	0xbda9d46d	-0.0829247
44	0xbce214ff	-0.027597902
45	0xbdd06bca	-0.10176809
46	0xbdbb73e1	-0.091529615
47	0x3d002829	0.0312883
48	0xbdb6ad32	-0.08919753
49	0x3c6803b8	0.014161043
50	0xbd698eae	-0.057020836
51	0x3b30b0de	0.002696089
52	0xbdc43a86	-0.09581475
53	0x3e030cef	0.12797903
54	0x3dc3b681	0.09556294
55	0xbdfc7541	-0.12327052
56	0x3d96f375	0.073706545
57	0x3d8db2dd	0.06918881
58	0x3ca3078a	0.019901056
59	0x3dd5a658	0.10432118
60	0x3d357658	0.044302315
61	0xbd019330	-0.03163451
62	0x3d91b91c	0.07115385
63	0xbd61e1af	-0.05514687
64	0x3d527ead	0.05139034
65	0x3c0862ab	0.0083243055
66	0x3c994186	0.018708002
67	0x3e1fa36e	0.15589687
68	0x3c124c2a	0.008929292
69	0x3e018f9c	0.12652439
70	0x3d91bf84	0.07116607
71	0x3d786baf	0.06064957
72	0x3cf1a916	0.029499572
73	0x3dafdc60	0.08586955
74	0xbd8d3c7e	-0.068963036
75	0xbe09c570	-0.13454223
76	0x3cefb0a2	0.02925903
77	0x3da76828	0.08174163
78	0xbba5e8c5	-0.0050631487
79	0x3d174c64	0.036938086
80	0xbd7599d0	-0.05996114
81	0x3d4e9385	0.050433654
82	0x3d60e68e	0.054907374
83	0x3d0d5538	0.0345051
84	0x3d4199b3	0.04726572
85	0x3dbcd833	0.09220924
86	0xbe005090	-0.12530732
87	0x3d8ab7c5	0.067733325
88	0x3cb01433	0.021494007
89	0xbcf8e343	-0.030381804
90	0xbc9ce86a	-0.019153792
91	0xbd1819ff	-0.037134167
92	0x3d29aa01	0.041421894
93	0x3d600865	0.054695506
94	0x3cb43772	0.021999095
95	0xbe089f8c	-0.13342112
96	0xbd5d6c9f	-0.054058667
97	0xbb96ca39	-0.0046017435
98	0xbd2b9a8e	-0.04189544
99	0x3d8c2e6f	0.06844794
100	0x3d5cdaf2	0.05391974
101	0x3da14386	0.07874207
102	0x3d62308b	0.055222075
103	0xbdb0f267	-0.086399846
104	0xbc8ca5fd	-0.017168993
105	0x3d69f71a	0.05712042
106	0x3d95aeb6	0.07308714
107	0xbd27c25d	-0.040956844
108	0xbd0f1efd	-0.034941662
109	0x3d06eb71	0.03293938
110	0x3a717c72	0.0009211964
111	0xbdfa5be9	-0.12224562
112	0x3d61a5e9	0.055089865
113	0x3da47fab	0.08032163
114	0xbd42f808	-0.047599822
115	0xbdb1a289	-0.08673579
116	0x3e325aa8	0.17417395
117	0x3d798ed3	0.060927223
118	0xbd9ab3dc	-0.07553837
119	0x3b58054c	0.0032962142
120	0xbd82d8a6	-0.06388979
121	0xbd64c38a	-0.055850543
122	0xbbc3c10d	-0.005973941
123	0x3da2c36b	0.07947429
124	0xbd7588ca	-0.059944905
125	0x3c9184c6	0.017763507
126	0x3d4e90ae	0.050430946
127	0x3d3b1248	0.04567173
128	0xbdb25950	-0.08708441
129	0x3dca5e8c	0.09881315
130	0xbda9fd48	-0.08300263
131	0xbd8d9296	-0.06912725
132	0xbc687730	-0.014188573
133	0xbc3e7094	-0.01162352
134	0xbbba288e	-0.005681104
135	0xbe12d5cb	-0.14339368
136	0xbd8e98fb	-0.069627725
137	0xbdb6dbda	-0.08928652
138	0x3e187a48	0.14890397
139	0x3c19f13f	0.009395896
140	0xbd7f0575	-0.062261064
141	0xbd153eb4	-0.03643675
142	0x3d75657f	0.059911247
143	0xbda0bc65	-0.078484334
144	0x3d9663ef	0.073432796
145	0xbdc22b28	-0.09480888
146	0xbb8364db	-0.0040098256
147	0xbdbc59bc	-0.09196803
148	0x3c822245	0.015885482
149	0x3ccf776c	0.0253255
150	0x3d30c906	0.04316046
151	0x3c4bbc01	0.01243496
152	0x3c87145d	0.016489202
153	0xbd1da953	-0.03849156
154	0xbd14b086	-0.03630116
155	0xbda825a3	-0.08210304
156	0x3c2c9ffb	0.010536189
157	0x3cc923d3	0.024553215
158	0x3d1eb67d	0.038748253
159	0xbcdb91a1	-0.02680284
160	0xbe06ecfa	-0.13176337
161	0xbd785d26	-0.06063571
162	0x3ccf7c58	0.025327846
163	0xbde3fd6c	-0.11132321
164	0x3d9badc4	0.076015025
165	0x3b58aed2	0.0033063185
166	0xbba9d3f3	-0.005182737
167	0x3d82afc1	0.06381179
168	0x3cfabe14	0.030608214
169	0x3e0da9ec	0.13834351
170	0xbc141d22	-0.009040149
171	0xba1bd144	-0.0005943964
172	0x3d8a0cd2	0.067407265
173	0x3d5d5f39	0.05404589
174	0xbdb6b329	-0.08920891
175	0x3d7b4906	0.061348937
176	0x39deeb08	0.00042518252
177	0xbdcb0840	-0.09913683
178	0x3c44c8b1	0.012010739
179	0x3b75ffcd	0.0037536502
180	0xbd785d8c	-0.06063609
181	0x3d975c6f	0.07390677
182	0x3d8b9a39	0.06816525
183	0xbbd165d5	-0.006390313
184	0x3c187dbd	0.009307322
185	0x3cd1b093	0.025596892
186	0xbd4ae605	-0.04953577
187	0xbd108573	-0.035283517
188	0x3b27c342	0.002559856
189	0x3d03dae9	0.03219119
190	0x3ce4356b	0.027857503
191	0xbd6640c9	-0.056214128
192	0xbdd5d732	-0.10441436
193	0x3db947b8	0.090468824
194	0xbdcd86b6	-0.1003546
195	0x3d4e51c1	0.050370935
196	0x3e717b3d	0.23582168
197	0x3d4fa965	0.050698657
198	0xbd20cde4	-0.039258853
199	0x3d808820	0.06275964
200	0xbd85ad7d	-0.06527231
201	0x3d99d818	0.0751192
202	0x3cf8aca5	0.03035576
203	0x3e3c9727	0.18417035
204	0x3c82f08a	0.015983839
205	0x3dac0e4a	0.08401163
206	0x3dd3498c	0.10316762
207	0xbc0cd354	-0.008595306
208	0x3d59be74	0.053160146
209	0x3e1a24c7	0.15053092
210	0xbbb5256f	-0.005528144
211	0xbde88e2a	-0.11355241
212	0xbd6cf2e3	-0.057848822
213	0xbde203f9	-0.11035914
214	0x3d5f8c3c	0.054577097
215	0xbddd455d	-0.108042456
216	0xbd89c792	-0.06727518
217	0xbe548b53	-0.20756273
218	0x3dbd40cf	0.09240877
219	0xbcdca3ad	-0.026933515
220	0xbd683142	-0.0566876
221	0xbe1490b2	-0.14508322
222	0x3c4223c7	0.01184935
223	0x3d090d00	0.033459663
224	0x3d32c947	0.043648984
225	0x3d65a474	0.056065038
226	0x3cd87b58	0.026426002
227	0xbdbe50ea	-0.09292777
228	0xbd291045	-0.04127528
229	0x3dc95019	0.098297305
230	0xbd780c1f	-0.060558435
231	0x3dcdb71c	0.10044691
232	0x3e30322b	0.17206638
233	0xbd42b925	-0.04753985
234	0x3c88339b	0.01662617
235	0xbdfb8ca7	-0.12282687
236	0xbbacca01	-0.005273104
237	0xbab6b11d	-0.0013938282
238	0xbc264418	-0.010148071
239	0x3d9155a6	0.07096414
240	0x3d087ada	0.033320285
241	0xbc2dd6d2	-0.010610299
242	0x3d763ab5	0.06011458
243	0x3d1f431f	0.03888237
244	0x3be08600	0.0068519115
245	0xbca88346	-0.020570409
246	0xbc832554	-0.01600901
247	0x3d3f3459	0.046680782
248	0xbd10b6b3	-0.035330486
249	0xbc3d9a95	-0.0115725
250	0x3aed44a5	0.0018102123
251	0x3d2b07e5	0.041755576
252	0xbd3703ca	-0.044681348
253	0xbd0d6c67	-0.03452721
254	0xbdb1e56e	-0.08686338
255	0x3d624b70	0.055247724

actor.4.bias f4 [128]
0	0xbdbabd6d	-0.09118161
1	0xbc869b9c	-0.016431622
2	0xbd409f25	-0.047026772
3	0xbc8dfe68	-0.017333224
4	0x3b90e43a	0.004421738
5	0xbb0858ca	-0.0020804876
6	0x3c7c3aaa	0.015394846
7	0xbd0ac082	-0.033874996
8	0x3c17c199	0.009262466
9	0x3d18118f	0.03712612
10	0x3d02fd46	0.03197982
11	0xbd9c7db1	-0.07641161
12	0x3da05f07	0.07830625
13	0x3ba97c7e	0.0051723113
14	0x3d2d4a53	0.04230721
15	0x3baaddb4	0.0052144174
16	0xbd1374a1	-0.035999898
17	0x3d761387	0.060077216
18	0xbde12419	-0.10993213
19	0xbdee5b0d	-0.1163846
20	0xbd56915f	-0.05238473
21	0x3e04fee9	0.12987866
22	0x3cde7678	0.0271561
23	0xbdd14f72	-0.10220231
24	0x3d07062f	0.03296488
25	0x3daafb86	0.083487555
26	0xbd97c881	-0.0741129
27	0xbd855892	-0.06511034
28	0xbd47c050	-0.048767388
29	0xbcf8df16	-0.030379813
30	0x3ce5ab5f	0.028035818
31	0xbc6daecc	-0.014507007
32	0xbc030ede	-0.00799915
33	0x3cb9b19a	0.022667695
34	0x3cd63418	0.026147887
35	0xbc253c50	-0.01008518
36	0x3dab0472	0.08350457
37	0xbd70e4f6	-0.058812104
38	0xbc96a135	-0.018387416
39	0x3cfd0bd4	0.03088943
40	0x3d9a9652	0.075482026
41	0xbdf0f2c8	-0.11765057
42	0xbd123f8d	-0.035705138
43	0xbb256613	-0.0025237843
44	0x3cb9e64a	0.022692818
45	0xbd01fee6	-0.03173723
46	0x3d5ccea6	0.053908013
47	0xbd565993	-0.05233152
48	0x3b9150df	0.0044346894
49	0x3dcef446	0.10105185
50	0xbd723717	-0.05913457
51	0x3d30265e	0.04300534
52	0xbd91672c	-0.070997566
53	0x3d6719c9	0.056421075
54	0x3d9c357a	0.07627387
55	0x3b461e7d	0.0030230575
56	0xbd5749ed	-0.052560735
57	0xbdb7da16	-0.089771435
58	0x3b9a85bf	0.004715651
59	0xbd19cb8b	-0.03754763
60	0x3da7b5c1	0.08188964
61	0x3cc1c6d9	0.023654388
62	0x3dcce05a	0.10003729
63	0xbe037e0e	-0.12841055
64	0xbccbfee2	-0.024901811
65	0x3c810a28	0.015751913
66	0x3c0dd1e5	0.008656
67	0x3db24017	0.087036304
68	0x3d424431	0.047428314
69	0xbd3634e1	-0.044484023
70	0x3df9c28b	0.12195309
71	0xbdfb30dc	-0.122651786
72	0x3ca7c12e	0.020477857
73	0xbbdd3acd	-0.0067513944
74	0x3d0c033a	0.034182765
75	0xbd670900	-0.056405067
76	0xbd24f850	-0.04027587
77	0x3bd0c766	0.0063714264
78	0xbd69a1d7	-0.057039108
79	0x3d99d9f5	0.07512275
80	0x3d0b4af2	0.03400702
81	0x3d8f47d8	0.06996125
82	0x3cbed6e9	0.023295837
83	0x3dc0f159	0.094210334
84	0x3ca4c61e	0.020114
85	0xbdd1145a	-0.1020896
86	0x3d82f6d2	0.063947335
87	0xbd3c08b6	-0.045906745
88	0x3d2e842e	0.042606525
89	0xbdf98111	-0.121828206
90	0x3ce8a680	0.028399706
91	0x3de0fcdd	0.1098573
92	0xbd7afe8d	-0.061277915
93	0x3df4cc81	0.119530685
94	0x3d0e72d8	0.034777492
95	0xbbadc91f	-0.0053035165
96	0x3cb2d27b	0.02182888
97	0xbdd1416e	-0.10217558
98	0xbd2c62d0	-0.042086422
99	0xbe0cc16f	-0.13745664
100	0x3d8f5b94	0.06999889
101	0x3d29078c	0.041266963
102	0x3cc541c8	0.024079219
103	0x3c606bc9	0.013697573
104	0x3bc9dbe4	0.006160246
105	0xbd43fa72	-0.047846265
106	0x3de35437	0.11100047
107	0x3d50d7a3	0.050986897
108	0x3d635753	0.0555032
109	0xbdf2043f	-0.11817216
110	0xbdad8eec	-0.08474526
111	0xbd84962d	-0.06473956
112	0xbd5e5301	-0.054278377
113	0x3d792e02	0.060834892
114	0xbd858817	-0.06520098
115	0x3d5e5ead	0.05428951
116	0xbae70f7f	-0.001762852
117	0x3dd87188	0.10568529
118	0xbc399a68	-0.011328317
119	0x3ce67c4f	0.028135447
120	0x3c9e1402	0.01929665
121	0xbcd39bf5	-0.025831202
122	0x3e042001	0.12902834
123	0xbd5a2cf6	-0.053265534
124	0x3b56f8a5	0.0032802012
125	0xbdd23c3a	-0.102653936
126	0xbd511894	-0.05104883
127	0x3ccfd4ad	0.025369966

actor.6.weight f4 [26, 128]
0	0x3c9852f0	0.018594235
1	0xbd3cb2f2	-0.046069093
2	0x3c950852	0.018192444
3	0xbce2ffff	-0.02770996
4	0xbc296df2	-0.010341154
5	0xbd7c723d	-0.061632384
6	0xbc0ca354	-0.008583862
7	0x3d695d7f	0.05697393
8	0x3da0805c	0.078369826
9	0xbd3f2fa4	-0.046676293
10	0xbd9fd100	-0.078035355
11	0xbd504ace	-0.05085259
12	0x3d854a08	0.06508261
13	0xbd6a11d5	-0.057145912
14	0xbc3852b6	-0.011250189
15	0xbd49e313	-0.04928882
16	0xbd662322	-0.05618585
17	0xbd549d7d	-0.051908005
18	0xbd030315	-0.03198536
19	0xbcb78a86	-0.02240492
20	0x3c5dbfa4	0.01353446
21	0x3ce420a3	0.027847594
22	0xbd77cb61	-0.06049669
23	0x3d11ade5	0.03556623
24	0xbe16fcb5	-0.14744838
25	0xbcedb8d1	-0.029018791
26	0xbd63c3f2	-0.05560679
27	0x3d1dedd8	0.038556904
28	0xbc3dfa19	-0.011595272
29	0x3ca68cfb	0.020330897
30	0x3d9b3a7b	0.07579514
31	0x3af577c6	0.0018727712
32	0xbd45b807	-0.048271205
33	0xbd7fa3e8	-0.062412173
34	0x3c8a28b1	0.016865106
35	0x3d20fe17	0.03930482
36	0x3da24a4f	0.079243295
37	0xbcc1bc62	-0.023649398
38	0x3d67d9ca	0.056604184
39	0xbb2ac5cc	-0.0026057838
40	0xbd89ae98	-0.06722754
41	0xbcb0bd8e	-0.021574762
42	0x3de43313	0.11142554
43	0x3b14245a	0.0022604675
44	0xbc798e8f	-0.0152317425
45	0xbcbc9ddf	-0.023024498
46	0x3d80411b	0.06262418
47	0xbd07ae4e	-0.033125214
48	0xbdf4988c	-0.119431585
49	0xbbe401dc	-0.0069582295
50	0xbd9755f0	-0.07389438
51	0xbc79202b	-0.015205423
52	0xbd8c744b	-0.068581186
53	0xbd2745e3	-0.040838134
54	0xbd73c1ea	-0.059511103
55	0x3dbb1225	0.0913432
56	0x3af7e01e	0.0018911397
57	0x3cc3e7cc	0.02391424
58	0x3d89f059	0.06735296
59	0xbdd208e2	-0.102556005
60	0xbd67f1ac	-0.05662696
61	0x3dbc4346	0.09192519
62	0xbd9fd3e6	-0.07804088
63	0xbd05e570	-0.03268951
64	0x3d7b1452	0.061298676
65	0xbd2efac9	-0.042719636
66	0x3ddd6f9d	0.10812304
67	0x3d7515cd	0.059835244
68	0xbd53d6a7	-0.05171838
69	0xbcc7f462	-0.024408523
70	0x3ce6b4e5	0.02816243
71	0x3aced908	0.0015781233
72	0x3d426b24	0.04746546
73	0x3dd3b449	0.10337121
74	0xbcb655b0	-0.022257656
75	0xbd253a1d	-0.040338624
76	0xbd637308	-0.055529624
77	0xbdb2d247	-0.087315135
78	0x3d565204	0.05232431
79	0x3d4dab5d	0.050212253
80	0x3d143432	0.03618259
81	0x3dbf733e	0.093481526
82	0xbd14d579	-0.036336396
83	0xbdd0bf05	-0.10192684
84	0x3cc80437	0.024416072
85	0x3d92221c	0.07135412
86	0xbc14f88f	-0.009092464
87	0xbc87230d	-0.016496206
88	0xbd6e1fa3	-0.05813564
89	0xba877831	-0.0010335502
90	0xbd8de796	-0.06928937
91	0x3b0e1ab6	0.0021683401
92	0xbd441cff	-0.047879215
93	0xbb49179b	-0.0030684236
94	0x3dd344a0	0.103158236
95	0xbd14ed7d	-0.0363593
96	0x3d2d8a99	0.042368505
97	0x3cac2409	0.021013277
98	0x3c16d1d5	0.009205301
99	0x3d1a3235	0.037645537
100	0xbd92e341	-0.071722515
101	0x3d1154f2	0.0354814
102	0x3c8fbeb5	0.01754699
103	0xbca72f3c	-0.020408265
104	0x3cbebb24	0.023282595
105	0xbc6ecae5	-0.014574741
106	0xbc7d3e14	-0.015456695
107	0xbbafe076	-0.005367334
108	0x3d4fec8d	0.0507627
109	0xbcf63127	-0.030052735
110	0xbdaba86d	-0.08381734
111	0xbd7d0e78	-0.061781377
112	0x3d1a6c0f	0.03770071
113	0x3c524e0a	0.012835989
114	0xbda5fcee	-0.08104883
115	0xbdad3a06	-0.08458333
116	0xbd9dadba	-0.07699151
117	0xbc29fdb8	-0.010375433
118	0xbd48ecda	-0.049054004
119	0x3d863c2a	0.06554444
120	0xbc0f11b2	-0.008732246
121	0xbce225df	-0.027605949
122	0x3cf757e4	0.030193277
123	0xbd1f957e	-0.038960926
124	0x3db92b05	0.090414084
125	0xbd2fc69d	-0.04291402
126	0x3d86e2fa	0.06586261
127	0xbd0777e9	-0.03307334
128	0x3cbd2ef0	0.02309367
129	0xbc97e7af	-0.018543093
130	0xbda573ba	-0.08078714
131	0xbda5f30f	-0.081030004
132	0x3e840668	0.25786138
133	0xbcedcc2e	-0.029028025
134	0x3e3d09fa	0.18460837
135	0x3dcb0e50	0.09914839
136	0x3dc284d6	0.09497993
137	0xbd2a4888	-0.041573077
138	0xbdac2619	-0.08405704
139	0x3e6b7f67	0.22997819
140	0x3daf5957	0.08561962
141	0xbc6720a5	-0.014106904
142	0x3e7f7a38	0.24948967
143	0x3df3826f	0.118901126
144	0x3da4bb44	0.080435306
145	0x3dd58001	0.104248054
146	0xbcddb94b	-0.027065894
147	0x3c436a1d	0.011927155
148	0x3e3cf785	0.18453796
149	0xbd4ad73b	-0.049521666
150	0x3d80a74d	0.0628191
151	0xbdccf698	-0.100079715
152	0xbe08f281	-0.13373758
153	0x3d9bd8b6	0.07609694
154	0x3d1c3949	0.03814057
155	0x3cde2734	0.027118303
156	0x3d8bc831	0.06825293
157	0xbdda186c	-0.10649189
158	0xbc9437c3	-0.018092996
159	0xbe55414b	-0.20825689
160	0x3dd0437d	0.10169122
161	0x3cdfe8ec	0.027332745
162	0xbd75559a	-0.05989609
163	0xbd3172c4	-0.04332234
164	0xbc254f4b	-0.010089706
165	0x3e2ee673	0.17080097
166	0xbe10fad9	-0.14158191
167	0xbd0d4e6b	-0.034498613
168	0x3e217474	0.1576708
169	0xbdd919e4	-0.10600641
170	0x3d2e0bba	0.042491652
171	0xbbdc853f	-0.0067297514
172	0x3db86546	0.090036914
173	0xbdb65194	-0.089022785
174	0xbda4ba0c	-0.08043298
175	0xbd5187ba	-0.05115483
176	0x3cb22bc6	0.021749388
177	0x3c673253	0.014111119
178	0x3d9e4023	0.07727077
179	0xbcfb2e63	-0.030661767
180	0xbe2c15db	-0.16805212
181	0xbca1070e	-0.019656684
182	0x3e178e29	0.14800324
183	0xbe16019e	-0.14649054
184	0x3df57f75	0.11987201
185	0x3e0cedca	0.13762584
186	0xbd9a0f02	-0.07522394
187	0x3c67e35b	0.014153327
188	0x3d3780fc	0.044800743
189	0xbda8c5c6	-0.08240847
190	0xbd9de6ee	-0.07710062
191	0xbd1bafe2	-0.03800953
192	0x3dae0ff9	0.0849914
193	0xbe0cdb17	-0.13755451
194	0xbdc3ddfb	-0.09563824
195	0xbdda5944	-0.10661557
196	0x3d56e472	0.052463956
197	0xbdb24fd5	-0.08706633
198	0x3d0f0a7c	0.034922108
199	0xbd867411	-0.06565107
200	0x3ae551e8	0.0017495723
201	0x3dac95b7	0.08426993
202	0xbb2d3d37	-0.0026434192
203	0xbd843ca2	-0.06456877
204	0xbd5299bd	-0.051416148
205	0xbdec889f	-0.11549496
206	0x3b6f351e	0.0036500166
207	0xbc9dd24a	-0.019265313
208	0x3d43e79b	0.047828298
209	0xbd0b44f7	-0.034001317
210	0x3ceab7ec	0.028652154
211	0xbd8dd376	-0.069250986
212	0x3c019ef7	0.007911435
213	0xbd25f8b6	-0.040520392
214	0x3d39cab4	0.04535933
215	0xbdb6e06a	-0.08929522
216	0xbe5215e9	-0.2051617
217	0xbc75e1e7	-0.015007473
218	0x3bfc315f	0.007696315
219	0x3d9cfbbf	0.07665204
220	0x3a92b28f	0.0011192131
221	0x3da40972	0.08009614
222	0x3dc8a26c	0.097966045
223	0x3dad1c1c	0.08452627
224	0x3ce96172	0.028488848
225	0xbb9ef042	-0.0048504183
226	0x3c6c7112	0.014431255
227	0x3e58452f	0.21120141
228	0xbccace0d	-0.024756456
229	0x3b6c617d	0.003606885
230	0x3c98643e	0.018602487
231	0x3e2361a3	0.15955214
232	0xbb9be870	-0.0047579333
233	0xba02dd95	-0.0004992125
234	0x3dd5d158	0.1044032
235	0x3d995bf1	0.074882396
236	0xbdb12b3e	-0.08650826
237	0xbcfd84f8	-0.030947194
238	0x3c413152	0.011791544
239	0x3db94894	0.09047046
240	0x3da7a8c4	0.08186486
241	0x3cd171a7	0.025566889
242	0xbcdb5cbf	-0.026777623
243	0x3e0487c8	0.12942421
244	0xbcabb8a8	-0.020962074
245	0xbdbdf208	-0.092746794
246	0x3b84c3c4	0.0040516574
247	0xbd515766	-0.05110874
248	0xbd8dc6b5	-0.06922666
249	0x3d2fa753	0.042884182
250	0xbd1a6552	-0.037694283
251	0x3c3d3fa3	0.011550817
252	0xbd6e89f4	-0.05823703
253	0xbcb21774	-0.021739699
254	0x3e133e1b	0.1437916
255	0xbc1ecfcd	-0.009693098

actor.6.bias f4 [26]
0	0x3d134dc1	0.035962824
1	0xbb583ddc	-0.0032995855
2	0x3d2e5292	0.042559214
3	0x3d97e336	0.07416384
4	0x3c4993d0	0.012303308
5	0xbb13a9f6	-0.0022531725
6	0x3d71893d	0.05896877
7	0xbd4062a5	-0.046969075
8	0x3da28f06	0.07937436
9	0x3d57bbe8	0.052669436
10	0xbdeacf6e	-0.11465345
11	0xbcf19b4b	-0.029492995
12	0xbc2fde40	-0.010734141
13	0xbd6da339	-0.05801699
14	0xbdef4c1a	-0.11684437
15	0x3dbc23af	0.091864936
16	0x3da118b1	0.07866038
17	0x3cf89fe4	0.03034968
18	0xbc993344	-0.018701203
19	0x3d1719b6	0.036889754
20	0x3cc1c518	0.023653552
21	0x3cb1bc8b	0.02169635
22	0xba957cc4	-0.0011404981
23	0xbe2fdfcf	-0.1717522
24	0x3dccc6d6	0.099988624
25	0x3d90c9d9	0.070697494
